…
Confusion mat: [[18049    30    27     8     4]
 [  114   430    11     0     1]
 [   49     5  1370    19     5]
 [   25     1    18   118     0]
 [   15     0     2     0  1591]]
Acc per class: [0.99619163 0.77338129 0.9461326  0.72839506 0.98942786]
Model: "Baseline_MIT"
_________________________________________________________________
Layer (type)                 Output Shape              Param #   
=================================================================
input_161 (InputLayer)       [(None, 187, 1)]          0         
_________________________________________________________________
conv1d_368 (Conv1D)          (None, 183, 16)           96        
_________________________________________________________________
conv1d_369 (Conv1D)          (None, 179, 16)           1296      
_________________________________________________________________
max_pooling1d_138 (MaxPoolin (None, 89, 16)            0         
_________________________________________________________________
dropout_184 (Dropout)        (None, 89, 16)            0         
_________________________________________________________________
conv1d_370 (Conv1D)          (None, 87, 32)            1568      
_________________________________________________________________
conv1d_371 (Conv1D)          (None, 85, 32)            3104      
_________________________________________________________________
max_pooling1d_139 (MaxPoolin (None, 42, 32)            0         
_________________________________________________________________
dropout_185 (Dropout)        (None, 42, 32)            0         
_________________________________________________________________
conv1d_372 (Conv1D)          (None, 40, 32)            3104      
_________________________________________________________________
conv1d_373 (Conv1D)          (None, 38, 32)            3104      
_________________________________________________________________
max_pooling1d_140 (MaxPoolin (None, 19, 32)            0         
_________________________________________________________________
dropout_186 (Dropout)        (None, 19, 32)            0         
_________________________________________________________________
conv1d_374 (Conv1D)          (None, 17, 256)           24832     
_________________________________________________________________
conv1d_375 (Conv1D)          (None, 15, 256)           196864    
_________________________________________________________________
global_max_pooling1d_46 (Glo (None, 256)               0         
_________________________________________________________________
dropout_187 (Dropout)        (None, 256)               0         
_________________________________________________________________
dense_1 (Dense)              (None, 64)                16448     
_________________________________________________________________
dense_2 (Dense)              (None, 64)                4160      
_________________________________________________________________
dense_3_mitbih (Dense)       (None, 5)                 325       
=================================================================
Total params: 254,901
Trainable params: 254,901
Non-trainable params: 0
_________________________________________________________________

Accuracy:      0.9847432852183446
F1:            0.9094072988722587
Confusion mat:
 [[18049    30    27     8     4]
 [  114   430    11     0     1]
 [   49     5  1370    19     5]
 [   25     1    18   118     0]
…
