{"class_name": "Model", "config": {"name": "Ensemble_NNEnsemble_PTB_Bidirectional", "layers": [{"name": "input_9", "class_name": "InputLayer", "config": {"batch_input_shape": [null, 187, 1], "dtype": "float32", "sparse": false, "ragged": false, "name": "input_9"}, "inbound_nodes": []}, {"name": "Baseline_PTB", "class_name": "Model", "config": {"name": "Baseline_PTB", "layers": [{"name": "input_16", "class_name": "InputLayer", "config": {"batch_input_shape": [null, 187, 1], "dtype": "float32", "sparse": false, "ragged": false, "name": "input_16"}, "inbound_nodes": []}, {"name": "conv1d_120", "class_name": "Conv1D", "config": {"name": "conv1d_120", "trainable": false, "dtype": "float32", "filters": 16, "kernel_size": [5], "strides": [1], "padding": "valid", "data_format": "channels_last", "dilation_rate": [1], "activation": "relu", "use_bias": true, "kernel_initializer": {"class_name": "GlorotUniform", "config": {"seed": null, "dtype": "float32"}}, "bias_initializer": {"class_name": "Zeros", "config": {"dtype": "float32"}}, "kernel_regularizer": null, "bias_regularizer": null, "activity_regularizer": null, "kernel_constraint": null, "bias_constraint": null}, "inbound_nodes": [[["input_16", 0, 0, {}]]]}, {"name": "conv1d_121", "class_name": "Conv1D", "config": {"name": "conv1d_121", "trainable": false, "dtype": "float32", "filters": 16, "kernel_size": [5], "strides": [1], "padding": "valid", "data_format": "channels_last", "dilation_rate": [1], "activation": "relu", "use_bias": true, "kernel_initializer": {"class_name": "GlorotUniform", "config": {"seed": null, "dtype": "float32"}}, "bias_initializer": {"class_name": "Zeros", "config": {"dtype": "float32"}}, "kernel_regularizer": null, "bias_regularizer": null, "activity_regularizer": null, "kernel_constraint": null, "bias_constraint": null}, "inbound_nodes": [[["conv1d_120", 0, 0, {}]]]}, {"name": "max_pooling1d_45", "class_name": "MaxPooling1D", "config": {"name": "max_pooling1d_45", "trainable": false, "dtype": "float32", "strides": [2], "pool_size": [2], "padding": "valid", "data_format": "channels_last"}, "inbound_nodes": [[["conv1d_121", 0, 0, {}]]]}, {"name": "dropout_60", "class_name": "Dropout", "config": {"name": "dropout_60", "trainable": false, "dtype": "float32", "rate": 0.1, "noise_shape": null, "seed": null}, "inbound_nodes": [[["max_pooling1d_45", 0, 0, {}]]]}, {"name": "conv1d_122", "class_name": "Conv1D", "config": {"name": "conv1d_122", "trainable": false, "dtype": "float32", "filters": 32, "kernel_size": [3], "strides": [1], "padding": "valid", "data_format": "channels_last", "dilation_rate": [1], "activation": "relu", "use_bias": true, "kernel_initializer": {"class_name": "GlorotUniform", "config": {"seed": null, "dtype": "float32"}}, "bias_initializer": {"class_name": "Zeros", "config": {"dtype": "float32"}}, "kernel_regularizer": null, "bias_regularizer": null, "activity_regularizer": null, "kernel_constraint": null, "bias_constraint": null}, "inbound_nodes": [[["dropout_60", 0, 0, {}]]]}, {"name": "conv1d_123", "class_name": "Conv1D", "config": {"name": "conv1d_123", "trainable": false, "dtype": "float32", "filters": 32, "kernel_size": [3], "strides": [1], "padding": "valid", "data_format": "channels_last", "dilation_rate": [1], "activation": "relu", "use_bias": true, "kernel_initializer": {"class_name": "GlorotUniform", "config": {"seed": null, "dtype": "float32"}}, "bias_initializer": {"class_name": "Zeros", "config": {"dtype": "float32"}}, "kernel_regularizer": null, "bias_regularizer": null, "activity_regularizer": null, "kernel_constraint": null, "bias_constraint": null}, "inbound_nodes": [[["conv1d_122", 0, 0, {}]]]}, {"name": "max_pooling1d_46", "class_name": "MaxPooling1D", "config": {"name": "max_pooling1d_46", "trainable": false, "dtype": "float32", "strides": [2], "pool_size": [2], "padding": "valid", "data_format": "channels_last"}, "inbound_nodes": [[["conv1d_123", 0, 0, {}]]]}, {"name": "dropout_61", "class_name": "Dropout", "config": {"name": "dropout_61", "trainable": false, "dtype": "float32", "rate": 0.1, "noise_shape": null, "seed": null}, "inbound_nodes": [[["max_pooling1d_46", 0, 0, {}]]]}, {"name": "conv1d_124", "class_name": "Conv1D", "config": {"name": "conv1d_124", "trainable": false, "dtype": "float32", "filters": 32, "kernel_size": [3], "strides": [1], "padding": "valid", "data_format": "channels_last", "dilation_rate": [1], "activation": "relu", "use_bias": true, "kernel_initializer": {"class_name": "GlorotUniform", "config": {"seed": null, "dtype": "float32"}}, "bias_initializer": {"class_name": "Zeros", "config": {"dtype": "float32"}}, "kernel_regularizer": null, "bias_regularizer": null, "activity_regularizer": null, "kernel_constraint": null, "bias_constraint": null}, "inbound_nodes": [[["dropout_61", 0, 0, {}]]]}, {"name": "conv1d_125", "class_name": "Conv1D", "config": {"name": "conv1d_125", "trainable": false, "dtype": "float32", "filters": 32, "kernel_size": [3], "strides": [1], "padding": "valid", "data_format": "channels_last", "dilation_rate": [1], "activation": "relu", "use_bias": true, "kernel_initializer": {"class_name": "GlorotUniform", "config": {"seed": null, "dtype": "float32"}}, "bias_initializer": {"class_name": "Zeros", "config": {"dtype": "float32"}}, "kernel_regularizer": null, "bias_regularizer": null, "activity_regularizer": null, "kernel_constraint": null, "bias_constraint": null}, "inbound_nodes": [[["conv1d_124", 0, 0, {}]]]}, {"name": "max_pooling1d_47", "class_name": "MaxPooling1D", "config": {"name": "max_pooling1d_47", "trainable": false, "dtype": "float32", "strides": [2], "pool_size": [2], "padding": "valid", "data_format": "channels_last"}, "inbound_nodes": [[["conv1d_125", 0, 0, {}]]]}, {"name": "dropout_62", "class_name": "Dropout", "config": {"name": "dropout_62", "trainable": false, "dtype": "float32", "rate": 0.1, "noise_shape": null, "seed": null}, "inbound_nodes": [[["max_pooling1d_47", 0, 0, {}]]]}, {"name": "conv1d_126", "class_name": "Conv1D", "config": {"name": "conv1d_126", "trainable": false, "dtype": "float32", "filters": 256, "kernel_size": [3], "strides": [1], "padding": "valid", "data_format": "channels_last", "dilation_rate": [1], "activation": "relu", "use_bias": true, "kernel_initializer": {"class_name": "GlorotUniform", "config": {"seed": null, "dtype": "float32"}}, "bias_initializer": {"class_name": "Zeros", "config": {"dtype": "float32"}}, "kernel_regularizer": null, "bias_regularizer": null, "activity_regularizer": null, "kernel_constraint": null, "bias_constraint": null}, "inbound_nodes": [[["dropout_62", 0, 0, {}]]]}, {"name": "conv1d_127", "class_name": "Conv1D", "config": {"name": "conv1d_127", "trainable": false, "dtype": "float32", "filters": 256, "kernel_size": [3], "strides": [1], "padding": "valid", "data_format": "channels_last", "dilation_rate": [1], "activation": "relu", "use_bias": true, "kernel_initializer": {"class_name": "GlorotUniform", "config": {"seed": null, "dtype": "float32"}}, "bias_initializer": {"class_name": "Zeros", "config": {"dtype": "float32"}}, "kernel_regularizer": null, "bias_regularizer": null, "activity_regularizer": null, "kernel_constraint": null, "bias_constraint": null}, "inbound_nodes": [[["conv1d_126", 0, 0, {}]]]}, {"name": "global_max_pooling1d_15", "class_name": "GlobalMaxPooling1D", "config": {"name": "global_max_pooling1d_15", "trainable": false, "dtype": "float32", "data_format": "channels_last"}, "inbound_nodes": [[["conv1d_127", 0, 0, {}]]]}, {"name": "dropout_63", "class_name": "Dropout", "config": {"name": "dropout_63", "trainable": false, "dtype": "float32", "rate": 0.2, "noise_shape": null, "seed": null}, "inbound_nodes": [[["global_max_pooling1d_15", 0, 0, {}]]]}, {"name": "dense_1", "class_name": "Dense", "config": {"name": "dense_1", "trainable": false, "dtype": "float32", "units": 64, "activation": "relu", "use_bias": true, "kernel_initializer": {"class_name": "GlorotUniform", "config": {"seed": null, "dtype": "float32"}}, "bias_initializer": {"class_name": "Zeros", "config": {"dtype": "float32"}}, "kernel_regularizer": null, "bias_regularizer": null, "activity_regularizer": null, "kernel_constraint": null, "bias_constraint": null}, "inbound_nodes": [[["dropout_63", 0, 0, {}]]]}, {"name": "dense_2", "class_name": "Dense", "config": {"name": "dense_2", "trainable": false, "dtype": "float32", "units": 64, "activation": "relu", "use_bias": true, "kernel_initializer": {"class_name": "GlorotUniform", "config": {"seed": null, "dtype": "float32"}}, "bias_initializer": {"class_name": "Zeros", "config": {"dtype": "float32"}}, "kernel_regularizer": null, "bias_regularizer": null, "activity_regularizer": null, "kernel_constraint": null, "bias_constraint": null}, "inbound_nodes": [[["dense_1", 0, 0, {}]]]}, {"name": "dense_3_mitbih", "class_name": "Dense", "config": {"name": "dense_3_mitbih", "trainable": false, "dtype": "float32", "units": 1, "activation": "sigmoid", "use_bias": true, "kernel_initializer": {"class_name": "GlorotUniform", "config": {"seed": null, "dtype": "float32"}}, "bias_initializer": {"class_name": "Zeros", "config": {"dtype": "float32"}}, "kernel_regularizer": null, "bias_regularizer": null, "activity_regularizer": null, "kernel_constraint": null, "bias_constraint": null}, "inbound_nodes": [[["dense_2", 0, 0, {}]]]}], "input_layers": [["input_16", 0, 0]], "output_layers": [["dense_3_mitbih", 0, 0]]}, "inbound_nodes": [[["input_9", 0, 0, {}]]]}, {"name": "RNN_PTB_Bidirectional", "class_name": "Model", "config": {"name": "RNN_PTB_Bidirectional", "layers": [{"name": "input_71", "class_name": "InputLayer", "config": {"batch_input_shape": [null, 187, 1], "dtype": "float32", "sparse": false, "ragged": false, "name": "input_71"}, "inbound_nodes": []}, {"name": "bidirectional_59", "class_name": "Bidirectional", "config": {"name": "bidirectional_59", "trainable": false, "dtype": "float32", "layer": {"class_name": "CuDNNLSTM", "config": {"name": "cu_dnnlstm_20", "trainable": true, "dtype": null, "return_sequences": false, "return_state": false, "go_backwards": false, "stateful": false, "time_major": false, "units": 100, "kernel_initializer": {"class_name": "GlorotUniform", "config": {"seed": null, "dtype": "float32"}}, "recurrent_initializer": {"class_name": "Orthogonal", "config": {"gain": 1.0, "seed": null, "dtype": "float32"}}, "bias_initializer": {"class_name": "Zeros", "config": {"dtype": "float32"}}, "unit_forget_bias": true, "kernel_regularizer": null, "recurrent_regularizer": null, "bias_regularizer": null, "activity_regularizer": null, "kernel_constraint": null, "recurrent_constraint": null, "bias_constraint": null}}, "merge_mode": "concat"}, "inbound_nodes": [[["input_71", 0, 0, {}]]]}, {"name": "dense_20", "class_name": "Dense", "config": {"name": "dense_20", "trainable": false, "dtype": "float32", "units": 200, "activation": "relu", "use_bias": true, "kernel_initializer": {"class_name": "GlorotUniform", "config": {"seed": null, "dtype": "float32"}}, "bias_initializer": {"class_name": "Zeros", "config": {"dtype": "float32"}}, "kernel_regularizer": null, "bias_regularizer": null, "activity_regularizer": null, "kernel_constraint": null, "bias_constraint": null}, "inbound_nodes": [[["bidirectional_59", 0, 0, {}]]]}, {"name": "dropout_97", "class_name": "Dropout", "config": {"name": "dropout_97", "trainable": false, "dtype": "float32", "rate": 0.2, "noise_shape": null, "seed": null}, "inbound_nodes": [[["dense_20", 0, 0, {}]]]}, {"name": "out_layer", "class_name": "Dense", "config": {"name": "out_layer", "trainable": false, "dtype": "float32", "units": 1, "activation": "sigmoid", "use_bias": true, "kernel_initializer": {"class_name": "GlorotUniform", "config": {"seed": null, "dtype": "float32"}}, "bias_initializer": {"class_name": "Zeros", "config": {"dtype": "float32"}}, "kernel_regularizer": null, "bias_regularizer": null, "activity_regularizer": null, "kernel_constraint": null, "bias_constraint": null}, "inbound_nodes": [[["dropout_97", 0, 0, {}]]]}], "input_layers": [["input_71", 0, 0]], "output_layers": [["out_layer", 0, 0]]}, "inbound_nodes": [[["input_9", 0, 0, {}]]]}, {"name": "Conv_RNN_PTB_Bidirectional", "class_name": "Model", "config": {"name": "Conv_RNN_PTB_Bidirectional", "layers": [{"name": "input_76", "class_name": "InputLayer", "config": {"batch_input_shape": [null, 187, 1], "dtype": "float32", "sparse": false, "ragged": false, "name": "input_76"}, "inbound_nodes": []}, {"name": "conv1d_186", "class_name": "Conv1D", "config": {"name": "conv1d_186", "trainable": false, "dtype": "float32", "filters": 16, "kernel_size": [3], "strides": [1], "padding": "valid", "data_format": "channels_last", "dilation_rate": [1], "activation": "relu", "use_bias": true, "kernel_initializer": {"class_name": "GlorotUniform", "config": {"seed": null, "dtype": "float32"}}, "bias_initializer": {"class_name": "Zeros", "config": {"dtype": "float32"}}, "kernel_regularizer": null, "bias_regularizer": null, "activity_regularizer": null, "kernel_constraint": null, "bias_constraint": null}, "inbound_nodes": [[["input_76", 0, 0, {}]]]}, {"name": "conv1d_187", "class_name": "Conv1D", "config": {"name": "conv1d_187", "trainable": false, "dtype": "float32", "filters": 16, "kernel_size": [3], "strides": [1], "padding": "valid", "data_format": "channels_last", "dilation_rate": [1], "activation": "relu", "use_bias": true, "kernel_initializer": {"class_name": "GlorotUniform", "config": {"seed": null, "dtype": "float32"}}, "bias_initializer": {"class_name": "Zeros", "config": {"dtype": "float32"}}, "kernel_regularizer": null, "bias_regularizer": null, "activity_regularizer": null, "kernel_constraint": null, "bias_constraint": null}, "inbound_nodes": [[["conv1d_186", 0, 0, {}]]]}, {"name": "max_pooling1d_78", "class_name": "MaxPooling1D", "config": {"name": "max_pooling1d_78", "trainable": false, "dtype": "float32", "strides": [2], "pool_size": [2], "padding": "valid", "data_format": "channels_last"}, "inbound_nodes": [[["conv1d_187", 0, 0, {}]]]}, {"name": "dropout_104", "class_name": "Dropout", "config": {"name": "dropout_104", "trainable": false, "dtype": "float32", "rate": 0.1, "noise_shape": null, "seed": null}, "inbound_nodes": [[["max_pooling1d_78", 0, 0, {}]]]}, {"name": "conv1d_188", "class_name": "Conv1D", "config": {"name": "conv1d_188", "trainable": false, "dtype": "float32", "filters": 32, "kernel_size": [3], "strides": [1], "padding": "valid", "data_format": "channels_last", "dilation_rate": [1], "activation": "relu", "use_bias": true, "kernel_initializer": {"class_name": "GlorotUniform", "config": {"seed": null, "dtype": "float32"}}, "bias_initializer": {"class_name": "Zeros", "config": {"dtype": "float32"}}, "kernel_regularizer": null, "bias_regularizer": null, "activity_regularizer": null, "kernel_constraint": null, "bias_constraint": null}, "inbound_nodes": [[["dropout_104", 0, 0, {}]]]}, {"name": "conv1d_189", "class_name": "Conv1D", "config": {"name": "conv1d_189", "trainable": false, "dtype": "float32", "filters": 32, "kernel_size": [3], "strides": [1], "padding": "valid", "data_format": "channels_last", "dilation_rate": [1], "activation": "relu", "use_bias": true, "kernel_initializer": {"class_name": "GlorotUniform", "config": {"seed": null, "dtype": "float32"}}, "bias_initializer": {"class_name": "Zeros", "config": {"dtype": "float32"}}, "kernel_regularizer": null, "bias_regularizer": null, "activity_regularizer": null, "kernel_constraint": null, "bias_constraint": null}, "inbound_nodes": [[["conv1d_188", 0, 0, {}]]]}, {"name": "max_pooling1d_79", "class_name": "MaxPooling1D", "config": {"name": "max_pooling1d_79", "trainable": false, "dtype": "float32", "strides": [2], "pool_size": [2], "padding": "valid", "data_format": "channels_last"}, "inbound_nodes": [[["conv1d_189", 0, 0, {}]]]}, {"name": "dropout_105", "class_name": "Dropout", "config": {"name": "dropout_105", "trainable": false, "dtype": "float32", "rate": 0.1, "noise_shape": null, "seed": null}, "inbound_nodes": [[["max_pooling1d_79", 0, 0, {}]]]}, {"name": "batch_normalization_59", "class_name": "BatchNormalization", "config": {"name": "batch_normalization_59", "trainable": false, "dtype": "float32", "axis": [2], "momentum": 0.99, "epsilon": 0.001, "center": true, "scale": true, "beta_initializer": {"class_name": "Zeros", "config": {"dtype": "float32"}}, "gamma_initializer": {"class_name": "Ones", "config": {"dtype": "float32"}}, "moving_mean_initializer": {"class_name": "Zeros", "config": {"dtype": "float32"}}, "moving_variance_initializer": {"class_name": "Ones", "config": {"dtype": "float32"}}, "beta_regularizer": null, "gamma_regularizer": null, "beta_constraint": null, "gamma_constraint": null}, "inbound_nodes": [[["dropout_105", 0, 0, {}]]]}, {"name": "bidirectional_64", "class_name": "Bidirectional", "config": {"name": "bidirectional_64", "trainable": false, "dtype": "float32", "layer": {"class_name": "CuDNNGRU", "config": {"name": "rnn", "trainable": true, "dtype": null, "return_sequences": false, "return_state": false, "go_backwards": false, "stateful": false, "time_major": false, "units": 100, "kernel_initializer": {"class_name": "GlorotUniform", "config": {"seed": null, "dtype": "float32"}}, "recurrent_initializer": {"class_name": "Orthogonal", "config": {"gain": 1.0, "seed": null, "dtype": "float32"}}, "bias_initializer": {"class_name": "Zeros", "config": {"dtype": "float32"}}, "kernel_regularizer": null, "recurrent_regularizer": null, "bias_regularizer": null, "activity_regularizer": null, "kernel_constraint": null, "recurrent_constraint": null, "bias_constraint": null}}, "merge_mode": "concat"}, "inbound_nodes": [[["batch_normalization_59", 0, 0, {}]]]}, {"name": "dense", "class_name": "Dense", "config": {"name": "dense", "trainable": false, "dtype": "float32", "units": 200, "activation": "relu", "use_bias": true, "kernel_initializer": {"class_name": "GlorotUniform", "config": {"seed": null, "dtype": "float32"}}, "bias_initializer": {"class_name": "Zeros", "config": {"dtype": "float32"}}, "kernel_regularizer": null, "bias_regularizer": null, "activity_regularizer": null, "kernel_constraint": null, "bias_constraint": null}, "inbound_nodes": [[["bidirectional_64", 0, 0, {}]]]}, {"name": "out_layer", "class_name": "Dense", "config": {"name": "out_layer", "trainable": false, "dtype": "float32", "units": 1, "activation": "sigmoid", "use_bias": true, "kernel_initializer": {"class_name": "GlorotUniform", "config": {"seed": null, "dtype": "float32"}}, "bias_initializer": {"class_name": "Zeros", "config": {"dtype": "float32"}}, "kernel_regularizer": null, "bias_regularizer": null, "activity_regularizer": null, "kernel_constraint": null, "bias_constraint": null}, "inbound_nodes": [[["dense", 0, 0, {}]]]}], "input_layers": [["input_76", 0, 0]], "output_layers": [["out_layer", 0, 0]]}, "inbound_nodes": [[["input_9", 0, 0, {}]]]}, {"name": "model_26", "class_name": "Model", "config": {"name": "model_26", "layers": [{"name": "input_30", "class_name": "InputLayer", "config": {"batch_input_shape": [null, 187, 1], "dtype": "float32", "sparse": false, "ragged": false, "name": "input_30"}, "inbound_nodes": []}, {"name": "conv1d_172", "class_name": "Conv1D", "config": {"name": "conv1d_172", "trainable": false, "dtype": "float32", "filters": 32, "kernel_size": [5], "strides": [1], "padding": "valid", "data_format": "channels_last", "dilation_rate": [1], "activation": "relu", "use_bias": true, "kernel_initializer": {"class_name": "GlorotUniform", "config": {"seed": null, "dtype": "float32"}}, "bias_initializer": {"class_name": "Zeros", "config": {"dtype": "float32"}}, "kernel_regularizer": null, "bias_regularizer": null, "activity_regularizer": null, "kernel_constraint": null, "bias_constraint": null}, "inbound_nodes": [[["input_30", 0, 0, {}]]]}, {"name": "batch_normalization_29", "class_name": "BatchNormalization", "config": {"name": "batch_normalization_29", "trainable": false, "dtype": "float32", "axis": [2], "momentum": 0.99, "epsilon": 0.001, "center": true, "scale": true, "beta_initializer": {"class_name": "Zeros", "config": {"dtype": "float32"}}, "gamma_initializer": {"class_name": "Ones", "config": {"dtype": "float32"}}, "moving_mean_initializer": {"class_name": "Zeros", "config": {"dtype": "float32"}}, "moving_variance_initializer": {"class_name": "Ones", "config": {"dtype": "float32"}}, "beta_regularizer": null, "gamma_regularizer": null, "beta_constraint": null, "gamma_constraint": null}, "inbound_nodes": [[["conv1d_172", 0, 0, {}]]]}, {"name": "re_lu_24", "class_name": "ReLU", "config": {"name": "re_lu_24", "trainable": false, "dtype": "float32", "max_value": null, "negative_slope": 0.0, "threshold": 0.0}, "inbound_nodes": [[["batch_normalization_29", 0, 0, {}]]]}, {"name": "conv1d_174", "class_name": "Conv1D", "config": {"name": "conv1d_174", "trainable": false, "dtype": "float32", "filters": 32, "kernel_size": [3], "strides": [1], "padding": "same", "data_format": "channels_last", "dilation_rate": [1], "activation": "linear", "use_bias": true, "kernel_initializer": {"class_name": "GlorotUniform", "config": {"seed": null, "dtype": "float32"}}, "bias_initializer": {"class_name": "Zeros", "config": {"dtype": "float32"}}, "kernel_regularizer": null, "bias_regularizer": null, "activity_regularizer": null, "kernel_constraint": null, "bias_constraint": null}, "inbound_nodes": [[["re_lu_24", 0, 0, {}]]]}, {"name": "batch_normalization_30", "class_name": "BatchNormalization", "config": {"name": "batch_normalization_30", "trainable": false, "dtype": "float32", "axis": [2], "momentum": 0.99, "epsilon": 0.001, "center": true, "scale": true, "beta_initializer": {"class_name": "Zeros", "config": {"dtype": "float32"}}, "gamma_initializer": {"class_name": "Ones", "config": {"dtype": "float32"}}, "moving_mean_initializer": {"class_name": "Zeros", "config": {"dtype": "float32"}}, "moving_variance_initializer": {"class_name": "Ones", "config": {"dtype": "float32"}}, "beta_regularizer": null, "gamma_regularizer": null, "beta_constraint": null, "gamma_constraint": null}, "inbound_nodes": [[["conv1d_174", 0, 0, {}]]]}, {"name": "re_lu_25", "class_name": "ReLU", "config": {"name": "re_lu_25", "trainable": false, "dtype": "float32", "max_value": null, "negative_slope": 0.0, "threshold": 0.0}, "inbound_nodes": [[["batch_normalization_30", 0, 0, {}]]]}, {"name": "conv1d_175", "class_name": "Conv1D", "config": {"name": "conv1d_175", "trainable": false, "dtype": "float32", "filters": 32, "kernel_size": [3], "strides": [1], "padding": "same", "data_format": "channels_last", "dilation_rate": [1], "activation": "linear", "use_bias": true, "kernel_initializer": {"class_name": "GlorotUniform", "config": {"seed": null, "dtype": "float32"}}, "bias_initializer": {"class_name": "Zeros", "config": {"dtype": "float32"}}, "kernel_regularizer": null, "bias_regularizer": null, "activity_regularizer": null, "kernel_constraint": null, "bias_constraint": null}, "inbound_nodes": [[["re_lu_25", 0, 0, {}]]]}, {"name": "add_15", "class_name": "Add", "config": {"name": "add_15", "trainable": false, "dtype": "float32"}, "inbound_nodes": [[["conv1d_175", 0, 0, {}], ["conv1d_172", 0, 0, {}]]]}, {"name": "batch_normalization_31", "class_name": "BatchNormalization", "config": {"name": "batch_normalization_31", "trainable": false, "dtype": "float32", "axis": [2], "momentum": 0.99, "epsilon": 0.001, "center": true, "scale": true, "beta_initializer": {"class_name": "Zeros", "config": {"dtype": "float32"}}, "gamma_initializer": {"class_name": "Ones", "config": {"dtype": "float32"}}, "moving_mean_initializer": {"class_name": "Zeros", "config": {"dtype": "float32"}}, "moving_variance_initializer": {"class_name": "Ones", "config": {"dtype": "float32"}}, "beta_regularizer": null, "gamma_regularizer": null, "beta_constraint": null, "gamma_constraint": null}, "inbound_nodes": [[["add_15", 0, 0, {}]]]}, {"name": "re_lu_26", "class_name": "ReLU", "config": {"name": "re_lu_26", "trainable": false, "dtype": "float32", "max_value": null, "negative_slope": 0.0, "threshold": 0.0}, "inbound_nodes": [[["batch_normalization_31", 0, 0, {}]]]}, {"name": "conv1d_176", "class_name": "Conv1D", "config": {"name": "conv1d_176", "trainable": false, "dtype": "float32", "filters": 32, "kernel_size": [3], "strides": [1], "padding": "same", "data_format": "channels_last", "dilation_rate": [1], "activation": "linear", "use_bias": true, "kernel_initializer": {"class_name": "GlorotUniform", "config": {"seed": null, "dtype": "float32"}}, "bias_initializer": {"class_name": "Zeros", "config": {"dtype": "float32"}}, "kernel_regularizer": null, "bias_regularizer": null, "activity_regularizer": null, "kernel_constraint": null, "bias_constraint": null}, "inbound_nodes": [[["re_lu_26", 0, 0, {}]]]}, {"name": "batch_normalization_32", "class_name": "BatchNormalization", "config": {"name": "batch_normalization_32", "trainable": false, "dtype": "float32", "axis": [2], "momentum": 0.99, "epsilon": 0.001, "center": true, "scale": true, "beta_initializer": {"class_name": "Zeros", "config": {"dtype": "float32"}}, "gamma_initializer": {"class_name": "Ones", "config": {"dtype": "float32"}}, "moving_mean_initializer": {"class_name": "Zeros", "config": {"dtype": "float32"}}, "moving_variance_initializer": {"class_name": "Ones", "config": {"dtype": "float32"}}, "beta_regularizer": null, "gamma_regularizer": null, "beta_constraint": null, "gamma_constraint": null}, "inbound_nodes": [[["conv1d_176", 0, 0, {}]]]}, {"name": "re_lu_27", "class_name": "ReLU", "config": {"name": "re_lu_27", "trainable": false, "dtype": "float32", "max_value": null, "negative_slope": 0.0, "threshold": 0.0}, "inbound_nodes": [[["batch_normalization_32", 0, 0, {}]]]}, {"name": "conv1d_177", "class_name": "Conv1D", "config": {"name": "conv1d_177", "trainable": false, "dtype": "float32", "filters": 32, "kernel_size": [3], "strides": [1], "padding": "same", "data_format": "channels_last", "dilation_rate": [1], "activation": "linear", "use_bias": true, "kernel_initializer": {"class_name": "GlorotUniform", "config": {"seed": null, "dtype": "float32"}}, "bias_initializer": {"class_name": "Zeros", "config": {"dtype": "float32"}}, "kernel_regularizer": null, "bias_regularizer": null, "activity_regularizer": null, "kernel_constraint": null, "bias_constraint": null}, "inbound_nodes": [[["re_lu_27", 0, 0, {}]]]}, {"name": "add_16", "class_name": "Add", "config": {"name": "add_16", "trainable": false, "dtype": "float32"}, "inbound_nodes": [[["conv1d_177", 0, 0, {}], ["add_15", 0, 0, {}]]]}, {"name": "batch_normalization_33", "class_name": "BatchNormalization", "config": {"name": "batch_normalization_33", "trainable": false, "dtype": "float32", "axis": [2], "momentum": 0.99, "epsilon": 0.001, "center": true, "scale": true, "beta_initializer": {"class_name": "Zeros", "config": {"dtype": "float32"}}, "gamma_initializer": {"class_name": "Ones", "config": {"dtype": "float32"}}, "moving_mean_initializer": {"class_name": "Zeros", "config": {"dtype": "float32"}}, "moving_variance_initializer": {"class_name": "Ones", "config": {"dtype": "float32"}}, "beta_regularizer": null, "gamma_regularizer": null, "beta_constraint": null, "gamma_constraint": null}, "inbound_nodes": [[["add_16", 0, 0, {}]]]}, {"name": "re_lu_28", "class_name": "ReLU", "config": {"name": "re_lu_28", "trainable": false, "dtype": "float32", "max_value": null, "negative_slope": 0.0, "threshold": 0.0}, "inbound_nodes": [[["batch_normalization_33", 0, 0, {}]]]}, {"name": "conv1d_178", "class_name": "Conv1D", "config": {"name": "conv1d_178", "trainable": false, "dtype": "float32", "filters": 32, "kernel_size": [3], "strides": [1], "padding": "same", "data_format": "channels_last", "dilation_rate": [1], "activation": "linear", "use_bias": true, "kernel_initializer": {"class_name": "GlorotUniform", "config": {"seed": null, "dtype": "float32"}}, "bias_initializer": {"class_name": "Zeros", "config": {"dtype": "float32"}}, "kernel_regularizer": null, "bias_regularizer": null, "activity_regularizer": null, "kernel_constraint": null, "bias_constraint": null}, "inbound_nodes": [[["re_lu_28", 0, 0, {}]]]}, {"name": "batch_normalization_34", "class_name": "BatchNormalization", "config": {"name": "batch_normalization_34", "trainable": false, "dtype": "float32", "axis": [2], "momentum": 0.99, "epsilon": 0.001, "center": true, "scale": true, "beta_initializer": {"class_name": "Zeros", "config": {"dtype": "float32"}}, "gamma_initializer": {"class_name": "Ones", "config": {"dtype": "float32"}}, "moving_mean_initializer": {"class_name": "Zeros", "config": {"dtype": "float32"}}, "moving_variance_initializer": {"class_name": "Ones", "config": {"dtype": "float32"}}, "beta_regularizer": null, "gamma_regularizer": null, "beta_constraint": null, "gamma_constraint": null}, "inbound_nodes": [[["conv1d_178", 0, 0, {}]]]}, {"name": "re_lu_29", "class_name": "ReLU", "config": {"name": "re_lu_29", "trainable": false, "dtype": "float32", "max_value": null, "negative_slope": 0.0, "threshold": 0.0}, "inbound_nodes": [[["batch_normalization_34", 0, 0, {}]]]}, {"name": "conv1d_179", "class_name": "Conv1D", "config": {"name": "conv1d_179", "trainable": false, "dtype": "float32", "filters": 32, "kernel_size": [3], "strides": [1], "padding": "same", "data_format": "channels_last", "dilation_rate": [1], "activation": "linear", "use_bias": true, "kernel_initializer": {"class_name": "GlorotUniform", "config": {"seed": null, "dtype": "float32"}}, "bias_initializer": {"class_name": "Zeros", "config": {"dtype": "float32"}}, "kernel_regularizer": null, "bias_regularizer": null, "activity_regularizer": null, "kernel_constraint": null, "bias_constraint": null}, "inbound_nodes": [[["re_lu_29", 0, 0, {}]]]}, {"name": "add_17", "class_name": "Add", "config": {"name": "add_17", "trainable": false, "dtype": "float32"}, "inbound_nodes": [[["conv1d_179", 0, 0, {}], ["add_16", 0, 0, {}]]]}, {"name": "batch_normalization_35", "class_name": "BatchNormalization", "config": {"name": "batch_normalization_35", "trainable": false, "dtype": "float32", "axis": [2], "momentum": 0.99, "epsilon": 0.001, "center": true, "scale": true, "beta_initializer": {"class_name": "Zeros", "config": {"dtype": "float32"}}, "gamma_initializer": {"class_name": "Ones", "config": {"dtype": "float32"}}, "moving_mean_initializer": {"class_name": "Zeros", "config": {"dtype": "float32"}}, "moving_variance_initializer": {"class_name": "Ones", "config": {"dtype": "float32"}}, "beta_regularizer": null, "gamma_regularizer": null, "beta_constraint": null, "gamma_constraint": null}, "inbound_nodes": [[["add_17", 0, 0, {}]]]}, {"name": "re_lu_30", "class_name": "ReLU", "config": {"name": "re_lu_30", "trainable": false, "dtype": "float32", "max_value": null, "negative_slope": 0.0, "threshold": 0.0}, "inbound_nodes": [[["batch_normalization_35", 0, 0, {}]]]}, {"name": "conv1d_180", "class_name": "Conv1D", "config": {"name": "conv1d_180", "trainable": false, "dtype": "float32", "filters": 32, "kernel_size": [3], "strides": [1], "padding": "same", "data_format": "channels_last", "dilation_rate": [1], "activation": "linear", "use_bias": true, "kernel_initializer": {"class_name": "GlorotUniform", "config": {"seed": null, "dtype": "float32"}}, "bias_initializer": {"class_name": "Zeros", "config": {"dtype": "float32"}}, "kernel_regularizer": null, "bias_regularizer": null, "activity_regularizer": null, "kernel_constraint": null, "bias_constraint": null}, "inbound_nodes": [[["re_lu_30", 0, 0, {}]]]}, {"name": "batch_normalization_36", "class_name": "BatchNormalization", "config": {"name": "batch_normalization_36", "trainable": false, "dtype": "float32", "axis": [2], "momentum": 0.99, "epsilon": 0.001, "center": true, "scale": true, "beta_initializer": {"class_name": "Zeros", "config": {"dtype": "float32"}}, "gamma_initializer": {"class_name": "Ones", "config": {"dtype": "float32"}}, "moving_mean_initializer": {"class_name": "Zeros", "config": {"dtype": "float32"}}, "moving_variance_initializer": {"class_name": "Ones", "config": {"dtype": "float32"}}, "beta_regularizer": null, "gamma_regularizer": null, "beta_constraint": null, "gamma_constraint": null}, "inbound_nodes": [[["conv1d_180", 0, 0, {}]]]}, {"name": "re_lu_31", "class_name": "ReLU", "config": {"name": "re_lu_31", "trainable": false, "dtype": "float32", "max_value": null, "negative_slope": 0.0, "threshold": 0.0}, "inbound_nodes": [[["batch_normalization_36", 0, 0, {}]]]}, {"name": "conv1d_181", "class_name": "Conv1D", "config": {"name": "conv1d_181", "trainable": false, "dtype": "float32", "filters": 32, "kernel_size": [3], "strides": [1], "padding": "same", "data_format": "channels_last", "dilation_rate": [1], "activation": "linear", "use_bias": true, "kernel_initializer": {"class_name": "GlorotUniform", "config": {"seed": null, "dtype": "float32"}}, "bias_initializer": {"class_name": "Zeros", "config": {"dtype": "float32"}}, "kernel_regularizer": null, "bias_regularizer": null, "activity_regularizer": null, "kernel_constraint": null, "bias_constraint": null}, "inbound_nodes": [[["re_lu_31", 0, 0, {}]]]}, {"name": "add_18", "class_name": "Add", "config": {"name": "add_18", "trainable": false, "dtype": "float32"}, "inbound_nodes": [[["conv1d_181", 0, 0, {}], ["add_17", 0, 0, {}]]]}, {"name": "conv1d_182", "class_name": "Conv1D", "config": {"name": "conv1d_182", "trainable": false, "dtype": "float32", "filters": 32, "kernel_size": [5], "strides": [1], "padding": "same", "data_format": "channels_last", "dilation_rate": [1], "activation": "relu", "use_bias": true, "kernel_initializer": {"class_name": "GlorotUniform", "config": {"seed": null, "dtype": "float32"}}, "bias_initializer": {"class_name": "Zeros", "config": {"dtype": "float32"}}, "kernel_regularizer": null, "bias_regularizer": null, "activity_regularizer": null, "kernel_constraint": null, "bias_constraint": null}, "inbound_nodes": [[["add_18", 0, 0, {}]]]}, {"name": "conv1d_173", "class_name": "Conv1D", "config": {"name": "conv1d_173", "trainable": false, "dtype": "float32", "filters": 32, "kernel_size": [5], "strides": [1], "padding": "same", "data_format": "channels_last", "dilation_rate": [1], "activation": "relu", "use_bias": true, "kernel_initializer": {"class_name": "GlorotUniform", "config": {"seed": null, "dtype": "float32"}}, "bias_initializer": {"class_name": "Zeros", "config": {"dtype": "float32"}}, "kernel_regularizer": null, "bias_regularizer": null, "activity_regularizer": null, "kernel_constraint": null, "bias_constraint": null}, "inbound_nodes": [[["conv1d_172", 0, 0, {}]]]}, {"name": "add_19", "class_name": "Add", "config": {"name": "add_19", "trainable": false, "dtype": "float32"}, "inbound_nodes": [[["conv1d_182", 0, 0, {}], ["conv1d_173", 0, 0, {}]]]}, {"name": "batch_normalization_37", "class_name": "BatchNormalization", "config": {"name": "batch_normalization_37", "trainable": false, "dtype": "float32", "axis": [2], "momentum": 0.99, "epsilon": 0.001, "center": true, "scale": true, "beta_initializer": {"class_name": "Zeros", "config": {"dtype": "float32"}}, "gamma_initializer": {"class_name": "Ones", "config": {"dtype": "float32"}}, "moving_mean_initializer": {"class_name": "Zeros", "config": {"dtype": "float32"}}, "moving_variance_initializer": {"class_name": "Ones", "config": {"dtype": "float32"}}, "beta_regularizer": null, "gamma_regularizer": null, "beta_constraint": null, "gamma_constraint": null}, "inbound_nodes": [[["add_19", 0, 0, {}]]]}, {"name": "conv1d_183", "class_name": "Conv1D", "config": {"name": "conv1d_183", "trainable": false, "dtype": "float32", "filters": 256, "kernel_size": [3], "strides": [1], "padding": "valid", "data_format": "channels_last", "dilation_rate": [1], "activation": "relu", "use_bias": true, "kernel_initializer": {"class_name": "GlorotUniform", "config": {"seed": null, "dtype": "float32"}}, "bias_initializer": {"class_name": "Zeros", "config": {"dtype": "float32"}}, "kernel_regularizer": null, "bias_regularizer": null, "activity_regularizer": null, "kernel_constraint": null, "bias_constraint": null}, "inbound_nodes": [[["batch_normalization_37", 0, 0, {}]]]}, {"name": "global_max_pooling1d_19", "class_name": "GlobalMaxPooling1D", "config": {"name": "global_max_pooling1d_19", "trainable": false, "dtype": "float32", "data_format": "channels_last"}, "inbound_nodes": [[["conv1d_183", 0, 0, {}]]]}, {"name": "dense_1", "class_name": "Dense", "config": {"name": "dense_1", "trainable": false, "dtype": "float32", "units": 64, "activation": "relu", "use_bias": true, "kernel_initializer": {"class_name": "GlorotUniform", "config": {"seed": null, "dtype": "float32"}}, "bias_initializer": {"class_name": "Zeros", "config": {"dtype": "float32"}}, "kernel_regularizer": null, "bias_regularizer": null, "activity_regularizer": null, "kernel_constraint": null, "bias_constraint": null}, "inbound_nodes": [[["global_max_pooling1d_19", 0, 0, {}]]]}, {"name": "dense_2", "class_name": "Dense", "config": {"name": "dense_2", "trainable": false, "dtype": "float32", "units": 64, "activation": "relu", "use_bias": true, "kernel_initializer": {"class_name": "GlorotUniform", "config": {"seed": null, "dtype": "float32"}}, "bias_initializer": {"class_name": "Zeros", "config": {"dtype": "float32"}}, "kernel_regularizer": null, "bias_regularizer": null, "activity_regularizer": null, "kernel_constraint": null, "bias_constraint": null}, "inbound_nodes": [[["dense_1", 0, 0, {}]]]}, {"name": "output_layer", "class_name": "Dense", "config": {"name": "output_layer", "trainable": false, "dtype": "float32", "units": 1, "activation": "sigmoid", "use_bias": true, "kernel_initializer": {"class_name": "GlorotUniform", "config": {"seed": null, "dtype": "float32"}}, "bias_initializer": {"class_name": "Zeros", "config": {"dtype": "float32"}}, "kernel_regularizer": null, "bias_regularizer": null, "activity_regularizer": null, "kernel_constraint": null, "bias_constraint": null}, "inbound_nodes": [[["dense_2", 0, 0, {}]]]}], "input_layers": [["input_30", 0, 0]], "output_layers": [["output_layer", 0, 0]]}, "inbound_nodes": [[["input_9", 0, 0, {}]]]}, {"name": "Baseline_Transfer_Retrain", "class_name": "Model", "config": {"name": "Baseline_Transfer_Retrain", "layers": [{"name": "input_55", "class_name": "InputLayer", "config": {"batch_input_shape": [null, 187, 1], "dtype": "float32", "sparse": false, "ragged": false, "name": "input_55"}, "inbound_nodes": []}, {"name": "conv1d_384", "class_name": "Conv1D", "config": {"name": "conv1d_384", "trainable": false, "dtype": "float32", "filters": 16, "kernel_size": [5], "strides": [1], "padding": "valid", "data_format": "channels_last", "dilation_rate": [1], "activation": "relu", "use_bias": true, "kernel_initializer": {"class_name": "GlorotUniform", "config": {"seed": null, "dtype": "float32"}}, "bias_initializer": {"class_name": "Zeros", "config": {"dtype": "float32"}}, "kernel_regularizer": null, "bias_regularizer": null, "activity_regularizer": null, "kernel_constraint": null, "bias_constraint": null}, "inbound_nodes": [[["input_55", 0, 0, {}]]]}, {"name": "conv1d_385", "class_name": "Conv1D", "config": {"name": "conv1d_385", "trainable": false, "dtype": "float32", "filters": 16, "kernel_size": [5], "strides": [1], "padding": "valid", "data_format": "channels_last", "dilation_rate": [1], "activation": "relu", "use_bias": true, "kernel_initializer": {"class_name": "GlorotUniform", "config": {"seed": null, "dtype": "float32"}}, "bias_initializer": {"class_name": "Zeros", "config": {"dtype": "float32"}}, "kernel_regularizer": null, "bias_regularizer": null, "activity_regularizer": null, "kernel_constraint": null, "bias_constraint": null}, "inbound_nodes": [[["conv1d_384", 0, 0, {}]]]}, {"name": "max_pooling1d_76", "class_name": "MaxPooling1D", "config": {"name": "max_pooling1d_76", "trainable": false, "dtype": "float32", "strides": [2], "pool_size": [2], "padding": "valid", "data_format": "channels_last"}, "inbound_nodes": [[["conv1d_385", 0, 0, {}]]]}, {"name": "dropout_96", "class_name": "Dropout", "config": {"name": "dropout_96", "trainable": false, "dtype": "float32", "rate": 0.1, "noise_shape": null, "seed": null}, "inbound_nodes": [[["max_pooling1d_76", 0, 0, {}]]]}, {"name": "conv1d_386", "class_name": "Conv1D", "config": {"name": "conv1d_386", "trainable": false, "dtype": "float32", "filters": 32, "kernel_size": [3], "strides": [1], "padding": "valid", "data_format": "channels_last", "dilation_rate": [1], "activation": "relu", "use_bias": true, "kernel_initializer": {"class_name": "GlorotUniform", "config": {"seed": null, "dtype": "float32"}}, "bias_initializer": {"class_name": "Zeros", "config": {"dtype": "float32"}}, "kernel_regularizer": null, "bias_regularizer": null, "activity_regularizer": null, "kernel_constraint": null, "bias_constraint": null}, "inbound_nodes": [[["dropout_96", 0, 0, {}]]]}, {"name": "conv1d_387", "class_name": "Conv1D", "config": {"name": "conv1d_387", "trainable": false, "dtype": "float32", "filters": 32, "kernel_size": [3], "strides": [1], "padding": "valid", "data_format": "channels_last", "dilation_rate": [1], "activation": "relu", "use_bias": true, "kernel_initializer": {"class_name": "GlorotUniform", "config": {"seed": null, "dtype": "float32"}}, "bias_initializer": {"class_name": "Zeros", "config": {"dtype": "float32"}}, "kernel_regularizer": null, "bias_regularizer": null, "activity_regularizer": null, "kernel_constraint": null, "bias_constraint": null}, "inbound_nodes": [[["conv1d_386", 0, 0, {}]]]}, {"name": "max_pooling1d_77", "class_name": "MaxPooling1D", "config": {"name": "max_pooling1d_77", "trainable": false, "dtype": "float32", "strides": [2], "pool_size": [2], "padding": "valid", "data_format": "channels_last"}, "inbound_nodes": [[["conv1d_387", 0, 0, {}]]]}, {"name": "dropout_97", "class_name": "Dropout", "config": {"name": "dropout_97", "trainable": false, "dtype": "float32", "rate": 0.1, "noise_shape": null, "seed": null}, "inbound_nodes": [[["max_pooling1d_77", 0, 0, {}]]]}, {"name": "conv1d_388", "class_name": "Conv1D", "config": {"name": "conv1d_388", "trainable": false, "dtype": "float32", "filters": 32, "kernel_size": [3], "strides": [1], "padding": "valid", "data_format": "channels_last", "dilation_rate": [1], "activation": "relu", "use_bias": true, "kernel_initializer": {"class_name": "GlorotUniform", "config": {"seed": null, "dtype": "float32"}}, "bias_initializer": {"class_name": "Zeros", "config": {"dtype": "float32"}}, "kernel_regularizer": null, "bias_regularizer": null, "activity_regularizer": null, "kernel_constraint": null, "bias_constraint": null}, "inbound_nodes": [[["dropout_97", 0, 0, {}]]]}, {"name": "conv1d_389", "class_name": "Conv1D", "config": {"name": "conv1d_389", "trainable": false, "dtype": "float32", "filters": 32, "kernel_size": [3], "strides": [1], "padding": "valid", "data_format": "channels_last", "dilation_rate": [1], "activation": "relu", "use_bias": true, "kernel_initializer": {"class_name": "GlorotUniform", "config": {"seed": null, "dtype": "float32"}}, "bias_initializer": {"class_name": "Zeros", "config": {"dtype": "float32"}}, "kernel_regularizer": null, "bias_regularizer": null, "activity_regularizer": null, "kernel_constraint": null, "bias_constraint": null}, "inbound_nodes": [[["conv1d_388", 0, 0, {}]]]}, {"name": "max_pooling1d_78", "class_name": "MaxPooling1D", "config": {"name": "max_pooling1d_78", "trainable": false, "dtype": "float32", "strides": [2], "pool_size": [2], "padding": "valid", "data_format": "channels_last"}, "inbound_nodes": [[["conv1d_389", 0, 0, {}]]]}, {"name": "dropout_98", "class_name": "Dropout", "config": {"name": "dropout_98", "trainable": false, "dtype": "float32", "rate": 0.1, "noise_shape": null, "seed": null}, "inbound_nodes": [[["max_pooling1d_78", 0, 0, {}]]]}, {"name": "conv1d_390", "class_name": "Conv1D", "config": {"name": "conv1d_390", "trainable": false, "dtype": "float32", "filters": 256, "kernel_size": [3], "strides": [1], "padding": "valid", "data_format": "channels_last", "dilation_rate": [1], "activation": "relu", "use_bias": true, "kernel_initializer": {"class_name": "GlorotUniform", "config": {"seed": null, "dtype": "float32"}}, "bias_initializer": {"class_name": "Zeros", "config": {"dtype": "float32"}}, "kernel_regularizer": null, "bias_regularizer": null, "activity_regularizer": null, "kernel_constraint": null, "bias_constraint": null}, "inbound_nodes": [[["dropout_98", 0, 0, {}]]]}, {"name": "conv1d_391", "class_name": "Conv1D", "config": {"name": "conv1d_391", "trainable": false, "dtype": "float32", "filters": 256, "kernel_size": [3], "strides": [1], "padding": "valid", "data_format": "channels_last", "dilation_rate": [1], "activation": "relu", "use_bias": true, "kernel_initializer": {"class_name": "GlorotUniform", "config": {"seed": null, "dtype": "float32"}}, "bias_initializer": {"class_name": "Zeros", "config": {"dtype": "float32"}}, "kernel_regularizer": null, "bias_regularizer": null, "activity_regularizer": null, "kernel_constraint": null, "bias_constraint": null}, "inbound_nodes": [[["conv1d_390", 0, 0, {}]]]}, {"name": "global_max_pooling1d_31", "class_name": "GlobalMaxPooling1D", "config": {"name": "global_max_pooling1d_31", "trainable": false, "dtype": "float32", "data_format": "channels_last"}, "inbound_nodes": [[["conv1d_391", 0, 0, {}]]]}, {"name": "dropout_99", "class_name": "Dropout", "config": {"name": "dropout_99", "trainable": false, "dtype": "float32", "rate": 0.2, "noise_shape": null, "seed": null}, "inbound_nodes": [[["global_max_pooling1d_31", 0, 0, {}]]]}, {"name": "dense_1", "class_name": "Dense", "config": {"name": "dense_1", "trainable": false, "dtype": "float32", "units": 64, "activation": "relu", "use_bias": true, "kernel_initializer": {"class_name": "GlorotUniform", "config": {"seed": null, "dtype": "float32"}}, "bias_initializer": {"class_name": "Zeros", "config": {"dtype": "float32"}}, "kernel_regularizer": null, "bias_regularizer": null, "activity_regularizer": null, "kernel_constraint": null, "bias_constraint": null}, "inbound_nodes": [[["dropout_99", 0, 0, {}]]]}, {"name": "dense_2", "class_name": "Dense", "config": {"name": "dense_2", "trainable": false, "dtype": "float32", "units": 64, "activation": "relu", "use_bias": true, "kernel_initializer": {"class_name": "GlorotUniform", "config": {"seed": null, "dtype": "float32"}}, "bias_initializer": {"class_name": "Zeros", "config": {"dtype": "float32"}}, "kernel_regularizer": null, "bias_regularizer": null, "activity_regularizer": null, "kernel_constraint": null, "bias_constraint": null}, "inbound_nodes": [[["dense_1", 0, 0, {}]]]}, {"name": "dense_3_mitbih", "class_name": "Dense", "config": {"name": "dense_3_mitbih", "trainable": false, "dtype": "float32", "units": 1, "activation": "sigmoid", "use_bias": true, "kernel_initializer": {"class_name": "GlorotUniform", "config": {"seed": null, "dtype": "float32"}}, "bias_initializer": {"class_name": "Zeros", "config": {"dtype": "float32"}}, "kernel_regularizer": null, "bias_regularizer": null, "activity_regularizer": null, "kernel_constraint": null, "bias_constraint": null}, "inbound_nodes": [[["dense_2", 0, 0, {}]]]}], "input_layers": [["input_55", 0, 0]], "output_layers": [["dense_3_mitbih", 0, 0]]}, "inbound_nodes": [[["input_9", 0, 0, {}]]]}, {"name": "RNN_Transfer_Retrain_Bidirectional", "class_name": "Model", "config": {"name": "RNN_Transfer_Retrain_Bidirectional", "layers": [{"name": "input_78", "class_name": "InputLayer", "config": {"batch_input_shape": [null, 187, 1], "dtype": "float32", "sparse": false, "ragged": false, "name": "input_78"}, "inbound_nodes": []}, {"name": "bidirectional_66", "class_name": "Bidirectional", "config": {"name": "bidirectional_66", "trainable": false, "dtype": "float32", "layer": {"class_name": "CuDNNLSTM", "config": {"name": "cu_dnnlstm_24", "trainable": true, "dtype": null, "return_sequences": false, "return_state": false, "go_backwards": false, "stateful": false, "time_major": false, "units": 100, "kernel_initializer": {"class_name": "GlorotUniform", "config": {"seed": null, "dtype": "float32"}}, "recurrent_initializer": {"class_name": "Orthogonal", "config": {"gain": 1.0, "seed": null, "dtype": "float32"}}, "bias_initializer": {"class_name": "Zeros", "config": {"dtype": "float32"}}, "unit_forget_bias": true, "kernel_regularizer": null, "recurrent_regularizer": null, "bias_regularizer": null, "activity_regularizer": null, "kernel_constraint": null, "recurrent_constraint": null, "bias_constraint": null}}, "merge_mode": "concat"}, "inbound_nodes": [[["input_78", 0, 0, {}]]]}, {"name": "dense_24", "class_name": "Dense", "config": {"name": "dense_24", "trainable": false, "dtype": "float32", "units": 200, "activation": "relu", "use_bias": true, "kernel_initializer": {"class_name": "GlorotUniform", "config": {"seed": null, "dtype": "float32"}}, "bias_initializer": {"class_name": "Zeros", "config": {"dtype": "float32"}}, "kernel_regularizer": null, "bias_regularizer": null, "activity_regularizer": null, "kernel_constraint": null, "bias_constraint": null}, "inbound_nodes": [[["bidirectional_66", 0, 0, {}]]]}, {"name": "dropout_107", "class_name": "Dropout", "config": {"name": "dropout_107", "trainable": false, "dtype": "float32", "rate": 0.2, "noise_shape": null, "seed": null}, "inbound_nodes": [[["dense_24", 0, 0, {}]]]}, {"name": "out_layer", "class_name": "Dense", "config": {"name": "out_layer", "trainable": false, "dtype": "float32", "units": 1, "activation": "sigmoid", "use_bias": true, "kernel_initializer": {"class_name": "GlorotUniform", "config": {"seed": null, "dtype": "float32"}}, "bias_initializer": {"class_name": "Zeros", "config": {"dtype": "float32"}}, "kernel_regularizer": null, "bias_regularizer": null, "activity_regularizer": null, "kernel_constraint": null, "bias_constraint": null}, "inbound_nodes": [[["dropout_107", 0, 0, {}]]]}], "input_layers": [["input_78", 0, 0]], "output_layers": [["out_layer", 0, 0]]}, "inbound_nodes": [[["input_9", 0, 0, {}]]]}, {"name": "Conv_RNN_Transfer_Retrain_Bidirectional", "class_name": "Model", "config": {"name": "Conv_RNN_Transfer_Retrain_Bidirectional", "layers": [{"name": "input_80", "class_name": "InputLayer", "config": {"batch_input_shape": [null, 187, 1], "dtype": "float32", "sparse": false, "ragged": false, "name": "input_80"}, "inbound_nodes": []}, {"name": "conv1d_194", "class_name": "Conv1D", "config": {"name": "conv1d_194", "trainable": false, "dtype": "float32", "filters": 16, "kernel_size": [3], "strides": [1], "padding": "valid", "data_format": "channels_last", "dilation_rate": [1], "activation": "relu", "use_bias": true, "kernel_initializer": {"class_name": "GlorotUniform", "config": {"seed": null, "dtype": "float32"}}, "bias_initializer": {"class_name": "Zeros", "config": {"dtype": "float32"}}, "kernel_regularizer": null, "bias_regularizer": null, "activity_regularizer": null, "kernel_constraint": null, "bias_constraint": null}, "inbound_nodes": [[["input_80", 0, 0, {}]]]}, {"name": "conv1d_195", "class_name": "Conv1D", "config": {"name": "conv1d_195", "trainable": false, "dtype": "float32", "filters": 16, "kernel_size": [3], "strides": [1], "padding": "valid", "data_format": "channels_last", "dilation_rate": [1], "activation": "relu", "use_bias": true, "kernel_initializer": {"class_name": "GlorotUniform", "config": {"seed": null, "dtype": "float32"}}, "bias_initializer": {"class_name": "Zeros", "config": {"dtype": "float32"}}, "kernel_regularizer": null, "bias_regularizer": null, "activity_regularizer": null, "kernel_constraint": null, "bias_constraint": null}, "inbound_nodes": [[["conv1d_194", 0, 0, {}]]]}, {"name": "max_pooling1d_82", "class_name": "MaxPooling1D", "config": {"name": "max_pooling1d_82", "trainable": false, "dtype": "float32", "strides": [2], "pool_size": [2], "padding": "valid", "data_format": "channels_last"}, "inbound_nodes": [[["conv1d_195", 0, 0, {}]]]}, {"name": "dropout_110", "class_name": "Dropout", "config": {"name": "dropout_110", "trainable": false, "dtype": "float32", "rate": 0.1, "noise_shape": null, "seed": null}, "inbound_nodes": [[["max_pooling1d_82", 0, 0, {}]]]}, {"name": "conv1d_196", "class_name": "Conv1D", "config": {"name": "conv1d_196", "trainable": false, "dtype": "float32", "filters": 32, "kernel_size": [3], "strides": [1], "padding": "valid", "data_format": "channels_last", "dilation_rate": [1], "activation": "relu", "use_bias": true, "kernel_initializer": {"class_name": "GlorotUniform", "config": {"seed": null, "dtype": "float32"}}, "bias_initializer": {"class_name": "Zeros", "config": {"dtype": "float32"}}, "kernel_regularizer": null, "bias_regularizer": null, "activity_regularizer": null, "kernel_constraint": null, "bias_constraint": null}, "inbound_nodes": [[["dropout_110", 0, 0, {}]]]}, {"name": "conv1d_197", "class_name": "Conv1D", "config": {"name": "conv1d_197", "trainable": false, "dtype": "float32", "filters": 32, "kernel_size": [3], "strides": [1], "padding": "valid", "data_format": "channels_last", "dilation_rate": [1], "activation": "relu", "use_bias": true, "kernel_initializer": {"class_name": "GlorotUniform", "config": {"seed": null, "dtype": "float32"}}, "bias_initializer": {"class_name": "Zeros", "config": {"dtype": "float32"}}, "kernel_regularizer": null, "bias_regularizer": null, "activity_regularizer": null, "kernel_constraint": null, "bias_constraint": null}, "inbound_nodes": [[["conv1d_196", 0, 0, {}]]]}, {"name": "max_pooling1d_83", "class_name": "MaxPooling1D", "config": {"name": "max_pooling1d_83", "trainable": false, "dtype": "float32", "strides": [2], "pool_size": [2], "padding": "valid", "data_format": "channels_last"}, "inbound_nodes": [[["conv1d_197", 0, 0, {}]]]}, {"name": "dropout_111", "class_name": "Dropout", "config": {"name": "dropout_111", "trainable": false, "dtype": "float32", "rate": 0.1, "noise_shape": null, "seed": null}, "inbound_nodes": [[["max_pooling1d_83", 0, 0, {}]]]}, {"name": "batch_normalization_61", "class_name": "BatchNormalization", "config": {"name": "batch_normalization_61", "trainable": false, "dtype": "float32", "axis": [2], "momentum": 0.99, "epsilon": 0.001, "center": true, "scale": true, "beta_initializer": {"class_name": "Zeros", "config": {"dtype": "float32"}}, "gamma_initializer": {"class_name": "Ones", "config": {"dtype": "float32"}}, "moving_mean_initializer": {"class_name": "Zeros", "config": {"dtype": "float32"}}, "moving_variance_initializer": {"class_name": "Ones", "config": {"dtype": "float32"}}, "beta_regularizer": null, "gamma_regularizer": null, "beta_constraint": null, "gamma_constraint": null}, "inbound_nodes": [[["dropout_111", 0, 0, {}]]]}, {"name": "bidirectional_68", "class_name": "Bidirectional", "config": {"name": "bidirectional_68", "trainable": false, "dtype": "float32", "layer": {"class_name": "CuDNNGRU", "config": {"name": "rnn", "trainable": true, "dtype": null, "return_sequences": false, "return_state": false, "go_backwards": false, "stateful": false, "time_major": false, "units": 100, "kernel_initializer": {"class_name": "GlorotUniform", "config": {"seed": null, "dtype": "float32"}}, "recurrent_initializer": {"class_name": "Orthogonal", "config": {"gain": 1.0, "seed": null, "dtype": "float32"}}, "bias_initializer": {"class_name": "Zeros", "config": {"dtype": "float32"}}, "kernel_regularizer": null, "recurrent_regularizer": null, "bias_regularizer": null, "activity_regularizer": null, "kernel_constraint": null, "recurrent_constraint": null, "bias_constraint": null}}, "merge_mode": "concat"}, "inbound_nodes": [[["batch_normalization_61", 0, 0, {}]]]}, {"name": "dense", "class_name": "Dense", "config": {"name": "dense", "trainable": false, "dtype": "float32", "units": 200, "activation": "relu", "use_bias": true, "kernel_initializer": {"class_name": "GlorotUniform", "config": {"seed": null, "dtype": "float32"}}, "bias_initializer": {"class_name": "Zeros", "config": {"dtype": "float32"}}, "kernel_regularizer": null, "bias_regularizer": null, "activity_regularizer": null, "kernel_constraint": null, "bias_constraint": null}, "inbound_nodes": [[["bidirectional_68", 0, 0, {}]]]}, {"name": "out_layer", "class_name": "Dense", "config": {"name": "out_layer", "trainable": false, "dtype": "float32", "units": 1, "activation": "sigmoid", "use_bias": true, "kernel_initializer": {"class_name": "GlorotUniform", "config": {"seed": null, "dtype": "float32"}}, "bias_initializer": {"class_name": "Zeros", "config": {"dtype": "float32"}}, "kernel_regularizer": null, "bias_regularizer": null, "activity_regularizer": null, "kernel_constraint": null, "bias_constraint": null}, "inbound_nodes": [[["dense", 0, 0, {}]]]}], "input_layers": [["input_80", 0, 0]], "output_layers": [["out_layer", 0, 0]]}, "inbound_nodes": [[["input_9", 0, 0, {}]]]}, {"name": "model_45", "class_name": "Model", "config": {"name": "model_45", "layers": [{"name": "input_61", "class_name": "InputLayer", "config": {"batch_input_shape": [null, 187, 1], "dtype": "float32", "sparse": false, "ragged": false, "name": "input_61"}, "inbound_nodes": []}, {"name": "conv1d_412", "class_name": "Conv1D", "config": {"name": "conv1d_412", "trainable": false, "dtype": "float32", "filters": 32, "kernel_size": [5], "strides": [1], "padding": "valid", "data_format": "channels_last", "dilation_rate": [1], "activation": "relu", "use_bias": true, "kernel_initializer": {"class_name": "GlorotUniform", "config": {"seed": null, "dtype": "float32"}}, "bias_initializer": {"class_name": "Zeros", "config": {"dtype": "float32"}}, "kernel_regularizer": null, "bias_regularizer": null, "activity_regularizer": null, "kernel_constraint": null, "bias_constraint": null}, "inbound_nodes": [[["input_61", 0, 0, {}]]]}, {"name": "batch_normalization_181", "class_name": "BatchNormalization", "config": {"name": "batch_normalization_181", "trainable": false, "dtype": "float32", "axis": [2], "momentum": 0.99, "epsilon": 0.001, "center": true, "scale": true, "beta_initializer": {"class_name": "Zeros", "config": {"dtype": "float32"}}, "gamma_initializer": {"class_name": "Ones", "config": {"dtype": "float32"}}, "moving_mean_initializer": {"class_name": "Zeros", "config": {"dtype": "float32"}}, "moving_variance_initializer": {"class_name": "Ones", "config": {"dtype": "float32"}}, "beta_regularizer": null, "gamma_regularizer": null, "beta_constraint": null, "gamma_constraint": null}, "inbound_nodes": [[["conv1d_412", 0, 0, {}]]]}, {"name": "re_lu_144", "class_name": "ReLU", "config": {"name": "re_lu_144", "trainable": false, "dtype": "float32", "max_value": null, "negative_slope": 0.0, "threshold": 0.0}, "inbound_nodes": [[["batch_normalization_181", 0, 0, {}]]]}, {"name": "conv1d_414", "class_name": "Conv1D", "config": {"name": "conv1d_414", "trainable": false, "dtype": "float32", "filters": 32, "kernel_size": [3], "strides": [1], "padding": "same", "data_format": "channels_last", "dilation_rate": [1], "activation": "linear", "use_bias": true, "kernel_initializer": {"class_name": "GlorotUniform", "config": {"seed": null, "dtype": "float32"}}, "bias_initializer": {"class_name": "Zeros", "config": {"dtype": "float32"}}, "kernel_regularizer": null, "bias_regularizer": null, "activity_regularizer": null, "kernel_constraint": null, "bias_constraint": null}, "inbound_nodes": [[["re_lu_144", 0, 0, {}]]]}, {"name": "batch_normalization_182", "class_name": "BatchNormalization", "config": {"name": "batch_normalization_182", "trainable": false, "dtype": "float32", "axis": [2], "momentum": 0.99, "epsilon": 0.001, "center": true, "scale": true, "beta_initializer": {"class_name": "Zeros", "config": {"dtype": "float32"}}, "gamma_initializer": {"class_name": "Ones", "config": {"dtype": "float32"}}, "moving_mean_initializer": {"class_name": "Zeros", "config": {"dtype": "float32"}}, "moving_variance_initializer": {"class_name": "Ones", "config": {"dtype": "float32"}}, "beta_regularizer": null, "gamma_regularizer": null, "beta_constraint": null, "gamma_constraint": null}, "inbound_nodes": [[["conv1d_414", 0, 0, {}]]]}, {"name": "re_lu_145", "class_name": "ReLU", "config": {"name": "re_lu_145", "trainable": false, "dtype": "float32", "max_value": null, "negative_slope": 0.0, "threshold": 0.0}, "inbound_nodes": [[["batch_normalization_182", 0, 0, {}]]]}, {"name": "conv1d_415", "class_name": "Conv1D", "config": {"name": "conv1d_415", "trainable": false, "dtype": "float32", "filters": 32, "kernel_size": [3], "strides": [1], "padding": "same", "data_format": "channels_last", "dilation_rate": [1], "activation": "linear", "use_bias": true, "kernel_initializer": {"class_name": "GlorotUniform", "config": {"seed": null, "dtype": "float32"}}, "bias_initializer": {"class_name": "Zeros", "config": {"dtype": "float32"}}, "kernel_regularizer": null, "bias_regularizer": null, "activity_regularizer": null, "kernel_constraint": null, "bias_constraint": null}, "inbound_nodes": [[["re_lu_145", 0, 0, {}]]]}, {"name": "add_90", "class_name": "Add", "config": {"name": "add_90", "trainable": false, "dtype": "float32"}, "inbound_nodes": [[["conv1d_415", 0, 0, {}], ["conv1d_412", 0, 0, {}]]]}, {"name": "batch_normalization_183", "class_name": "BatchNormalization", "config": {"name": "batch_normalization_183", "trainable": false, "dtype": "float32", "axis": [2], "momentum": 0.99, "epsilon": 0.001, "center": true, "scale": true, "beta_initializer": {"class_name": "Zeros", "config": {"dtype": "float32"}}, "gamma_initializer": {"class_name": "Ones", "config": {"dtype": "float32"}}, "moving_mean_initializer": {"class_name": "Zeros", "config": {"dtype": "float32"}}, "moving_variance_initializer": {"class_name": "Ones", "config": {"dtype": "float32"}}, "beta_regularizer": null, "gamma_regularizer": null, "beta_constraint": null, "gamma_constraint": null}, "inbound_nodes": [[["add_90", 0, 0, {}]]]}, {"name": "re_lu_146", "class_name": "ReLU", "config": {"name": "re_lu_146", "trainable": false, "dtype": "float32", "max_value": null, "negative_slope": 0.0, "threshold": 0.0}, "inbound_nodes": [[["batch_normalization_183", 0, 0, {}]]]}, {"name": "conv1d_416", "class_name": "Conv1D", "config": {"name": "conv1d_416", "trainable": false, "dtype": "float32", "filters": 32, "kernel_size": [3], "strides": [1], "padding": "same", "data_format": "channels_last", "dilation_rate": [1], "activation": "linear", "use_bias": true, "kernel_initializer": {"class_name": "GlorotUniform", "config": {"seed": null, "dtype": "float32"}}, "bias_initializer": {"class_name": "Zeros", "config": {"dtype": "float32"}}, "kernel_regularizer": null, "bias_regularizer": null, "activity_regularizer": null, "kernel_constraint": null, "bias_constraint": null}, "inbound_nodes": [[["re_lu_146", 0, 0, {}]]]}, {"name": "batch_normalization_184", "class_name": "BatchNormalization", "config": {"name": "batch_normalization_184", "trainable": false, "dtype": "float32", "axis": [2], "momentum": 0.99, "epsilon": 0.001, "center": true, "scale": true, "beta_initializer": {"class_name": "Zeros", "config": {"dtype": "float32"}}, "gamma_initializer": {"class_name": "Ones", "config": {"dtype": "float32"}}, "moving_mean_initializer": {"class_name": "Zeros", "config": {"dtype": "float32"}}, "moving_variance_initializer": {"class_name": "Ones", "config": {"dtype": "float32"}}, "beta_regularizer": null, "gamma_regularizer": null, "beta_constraint": null, "gamma_constraint": null}, "inbound_nodes": [[["conv1d_416", 0, 0, {}]]]}, {"name": "re_lu_147", "class_name": "ReLU", "config": {"name": "re_lu_147", "trainable": false, "dtype": "float32", "max_value": null, "negative_slope": 0.0, "threshold": 0.0}, "inbound_nodes": [[["batch_normalization_184", 0, 0, {}]]]}, {"name": "conv1d_417", "class_name": "Conv1D", "config": {"name": "conv1d_417", "trainable": false, "dtype": "float32", "filters": 32, "kernel_size": [3], "strides": [1], "padding": "same", "data_format": "channels_last", "dilation_rate": [1], "activation": "linear", "use_bias": true, "kernel_initializer": {"class_name": "GlorotUniform", "config": {"seed": null, "dtype": "float32"}}, "bias_initializer": {"class_name": "Zeros", "config": {"dtype": "float32"}}, "kernel_regularizer": null, "bias_regularizer": null, "activity_regularizer": null, "kernel_constraint": null, "bias_constraint": null}, "inbound_nodes": [[["re_lu_147", 0, 0, {}]]]}, {"name": "add_91", "class_name": "Add", "config": {"name": "add_91", "trainable": false, "dtype": "float32"}, "inbound_nodes": [[["conv1d_417", 0, 0, {}], ["add_90", 0, 0, {}]]]}, {"name": "batch_normalization_185", "class_name": "BatchNormalization", "config": {"name": "batch_normalization_185", "trainable": false, "dtype": "float32", "axis": [2], "momentum": 0.99, "epsilon": 0.001, "center": true, "scale": true, "beta_initializer": {"class_name": "Zeros", "config": {"dtype": "float32"}}, "gamma_initializer": {"class_name": "Ones", "config": {"dtype": "float32"}}, "moving_mean_initializer": {"class_name": "Zeros", "config": {"dtype": "float32"}}, "moving_variance_initializer": {"class_name": "Ones", "config": {"dtype": "float32"}}, "beta_regularizer": null, "gamma_regularizer": null, "beta_constraint": null, "gamma_constraint": null}, "inbound_nodes": [[["add_91", 0, 0, {}]]]}, {"name": "re_lu_148", "class_name": "ReLU", "config": {"name": "re_lu_148", "trainable": false, "dtype": "float32", "max_value": null, "negative_slope": 0.0, "threshold": 0.0}, "inbound_nodes": [[["batch_normalization_185", 0, 0, {}]]]}, {"name": "conv1d_418", "class_name": "Conv1D", "config": {"name": "conv1d_418", "trainable": false, "dtype": "float32", "filters": 32, "kernel_size": [3], "strides": [1], "padding": "same", "data_format": "channels_last", "dilation_rate": [1], "activation": "linear", "use_bias": true, "kernel_initializer": {"class_name": "GlorotUniform", "config": {"seed": null, "dtype": "float32"}}, "bias_initializer": {"class_name": "Zeros", "config": {"dtype": "float32"}}, "kernel_regularizer": null, "bias_regularizer": null, "activity_regularizer": null, "kernel_constraint": null, "bias_constraint": null}, "inbound_nodes": [[["re_lu_148", 0, 0, {}]]]}, {"name": "batch_normalization_186", "class_name": "BatchNormalization", "config": {"name": "batch_normalization_186", "trainable": false, "dtype": "float32", "axis": [2], "momentum": 0.99, "epsilon": 0.001, "center": true, "scale": true, "beta_initializer": {"class_name": "Zeros", "config": {"dtype": "float32"}}, "gamma_initializer": {"class_name": "Ones", "config": {"dtype": "float32"}}, "moving_mean_initializer": {"class_name": "Zeros", "config": {"dtype": "float32"}}, "moving_variance_initializer": {"class_name": "Ones", "config": {"dtype": "float32"}}, "beta_regularizer": null, "gamma_regularizer": null, "beta_constraint": null, "gamma_constraint": null}, "inbound_nodes": [[["conv1d_418", 0, 0, {}]]]}, {"name": "re_lu_149", "class_name": "ReLU", "config": {"name": "re_lu_149", "trainable": false, "dtype": "float32", "max_value": null, "negative_slope": 0.0, "threshold": 0.0}, "inbound_nodes": [[["batch_normalization_186", 0, 0, {}]]]}, {"name": "conv1d_419", "class_name": "Conv1D", "config": {"name": "conv1d_419", "trainable": false, "dtype": "float32", "filters": 32, "kernel_size": [3], "strides": [1], "padding": "same", "data_format": "channels_last", "dilation_rate": [1], "activation": "linear", "use_bias": true, "kernel_initializer": {"class_name": "GlorotUniform", "config": {"seed": null, "dtype": "float32"}}, "bias_initializer": {"class_name": "Zeros", "config": {"dtype": "float32"}}, "kernel_regularizer": null, "bias_regularizer": null, "activity_regularizer": null, "kernel_constraint": null, "bias_constraint": null}, "inbound_nodes": [[["re_lu_149", 0, 0, {}]]]}, {"name": "add_92", "class_name": "Add", "config": {"name": "add_92", "trainable": false, "dtype": "float32"}, "inbound_nodes": [[["conv1d_419", 0, 0, {}], ["add_91", 0, 0, {}]]]}, {"name": "batch_normalization_187", "class_name": "BatchNormalization", "config": {"name": "batch_normalization_187", "trainable": false, "dtype": "float32", "axis": [2], "momentum": 0.99, "epsilon": 0.001, "center": true, "scale": true, "beta_initializer": {"class_name": "Zeros", "config": {"dtype": "float32"}}, "gamma_initializer": {"class_name": "Ones", "config": {"dtype": "float32"}}, "moving_mean_initializer": {"class_name": "Zeros", "config": {"dtype": "float32"}}, "moving_variance_initializer": {"class_name": "Ones", "config": {"dtype": "float32"}}, "beta_regularizer": null, "gamma_regularizer": null, "beta_constraint": null, "gamma_constraint": null}, "inbound_nodes": [[["add_92", 0, 0, {}]]]}, {"name": "re_lu_150", "class_name": "ReLU", "config": {"name": "re_lu_150", "trainable": false, "dtype": "float32", "max_value": null, "negative_slope": 0.0, "threshold": 0.0}, "inbound_nodes": [[["batch_normalization_187", 0, 0, {}]]]}, {"name": "conv1d_420", "class_name": "Conv1D", "config": {"name": "conv1d_420", "trainable": false, "dtype": "float32", "filters": 32, "kernel_size": [3], "strides": [1], "padding": "same", "data_format": "channels_last", "dilation_rate": [1], "activation": "linear", "use_bias": true, "kernel_initializer": {"class_name": "GlorotUniform", "config": {"seed": null, "dtype": "float32"}}, "bias_initializer": {"class_name": "Zeros", "config": {"dtype": "float32"}}, "kernel_regularizer": null, "bias_regularizer": null, "activity_regularizer": null, "kernel_constraint": null, "bias_constraint": null}, "inbound_nodes": [[["re_lu_150", 0, 0, {}]]]}, {"name": "batch_normalization_188", "class_name": "BatchNormalization", "config": {"name": "batch_normalization_188", "trainable": false, "dtype": "float32", "axis": [2], "momentum": 0.99, "epsilon": 0.001, "center": true, "scale": true, "beta_initializer": {"class_name": "Zeros", "config": {"dtype": "float32"}}, "gamma_initializer": {"class_name": "Ones", "config": {"dtype": "float32"}}, "moving_mean_initializer": {"class_name": "Zeros", "config": {"dtype": "float32"}}, "moving_variance_initializer": {"class_name": "Ones", "config": {"dtype": "float32"}}, "beta_regularizer": null, "gamma_regularizer": null, "beta_constraint": null, "gamma_constraint": null}, "inbound_nodes": [[["conv1d_420", 0, 0, {}]]]}, {"name": "re_lu_151", "class_name": "ReLU", "config": {"name": "re_lu_151", "trainable": false, "dtype": "float32", "max_value": null, "negative_slope": 0.0, "threshold": 0.0}, "inbound_nodes": [[["batch_normalization_188", 0, 0, {}]]]}, {"name": "conv1d_421", "class_name": "Conv1D", "config": {"name": "conv1d_421", "trainable": false, "dtype": "float32", "filters": 32, "kernel_size": [3], "strides": [1], "padding": "same", "data_format": "channels_last", "dilation_rate": [1], "activation": "linear", "use_bias": true, "kernel_initializer": {"class_name": "GlorotUniform", "config": {"seed": null, "dtype": "float32"}}, "bias_initializer": {"class_name": "Zeros", "config": {"dtype": "float32"}}, "kernel_regularizer": null, "bias_regularizer": null, "activity_regularizer": null, "kernel_constraint": null, "bias_constraint": null}, "inbound_nodes": [[["re_lu_151", 0, 0, {}]]]}, {"name": "add_93", "class_name": "Add", "config": {"name": "add_93", "trainable": false, "dtype": "float32"}, "inbound_nodes": [[["conv1d_421", 0, 0, {}], ["add_92", 0, 0, {}]]]}, {"name": "conv1d_422", "class_name": "Conv1D", "config": {"name": "conv1d_422", "trainable": false, "dtype": "float32", "filters": 32, "kernel_size": [5], "strides": [1], "padding": "same", "data_format": "channels_last", "dilation_rate": [1], "activation": "relu", "use_bias": true, "kernel_initializer": {"class_name": "GlorotUniform", "config": {"seed": null, "dtype": "float32"}}, "bias_initializer": {"class_name": "Zeros", "config": {"dtype": "float32"}}, "kernel_regularizer": null, "bias_regularizer": null, "activity_regularizer": null, "kernel_constraint": null, "bias_constraint": null}, "inbound_nodes": [[["add_93", 0, 0, {}]]]}, {"name": "conv1d_413", "class_name": "Conv1D", "config": {"name": "conv1d_413", "trainable": false, "dtype": "float32", "filters": 32, "kernel_size": [5], "strides": [1], "padding": "same", "data_format": "channels_last", "dilation_rate": [1], "activation": "relu", "use_bias": true, "kernel_initializer": {"class_name": "GlorotUniform", "config": {"seed": null, "dtype": "float32"}}, "bias_initializer": {"class_name": "Zeros", "config": {"dtype": "float32"}}, "kernel_regularizer": null, "bias_regularizer": null, "activity_regularizer": null, "kernel_constraint": null, "bias_constraint": null}, "inbound_nodes": [[["conv1d_412", 0, 0, {}]]]}, {"name": "add_94", "class_name": "Add", "config": {"name": "add_94", "trainable": false, "dtype": "float32"}, "inbound_nodes": [[["conv1d_422", 0, 0, {}], ["conv1d_413", 0, 0, {}]]]}, {"name": "batch_normalization_189", "class_name": "BatchNormalization", "config": {"name": "batch_normalization_189", "trainable": false, "dtype": "float32", "axis": [2], "momentum": 0.99, "epsilon": 0.001, "center": true, "scale": true, "beta_initializer": {"class_name": "Zeros", "config": {"dtype": "float32"}}, "gamma_initializer": {"class_name": "Ones", "config": {"dtype": "float32"}}, "moving_mean_initializer": {"class_name": "Zeros", "config": {"dtype": "float32"}}, "moving_variance_initializer": {"class_name": "Ones", "config": {"dtype": "float32"}}, "beta_regularizer": null, "gamma_regularizer": null, "beta_constraint": null, "gamma_constraint": null}, "inbound_nodes": [[["add_94", 0, 0, {}]]]}, {"name": "conv1d_423", "class_name": "Conv1D", "config": {"name": "conv1d_423", "trainable": false, "dtype": "float32", "filters": 256, "kernel_size": [3], "strides": [1], "padding": "valid", "data_format": "channels_last", "dilation_rate": [1], "activation": "relu", "use_bias": true, "kernel_initializer": {"class_name": "GlorotUniform", "config": {"seed": null, "dtype": "float32"}}, "bias_initializer": {"class_name": "Zeros", "config": {"dtype": "float32"}}, "kernel_regularizer": null, "bias_regularizer": null, "activity_regularizer": null, "kernel_constraint": null, "bias_constraint": null}, "inbound_nodes": [[["batch_normalization_189", 0, 0, {}]]]}, {"name": "global_max_pooling1d_33", "class_name": "GlobalMaxPooling1D", "config": {"name": "global_max_pooling1d_33", "trainable": false, "dtype": "float32", "data_format": "channels_last"}, "inbound_nodes": [[["conv1d_423", 0, 0, {}]]]}, {"name": "dense_1", "class_name": "Dense", "config": {"name": "dense_1", "trainable": false, "dtype": "float32", "units": 64, "activation": "relu", "use_bias": true, "kernel_initializer": {"class_name": "GlorotUniform", "config": {"seed": null, "dtype": "float32"}}, "bias_initializer": {"class_name": "Zeros", "config": {"dtype": "float32"}}, "kernel_regularizer": null, "bias_regularizer": null, "activity_regularizer": null, "kernel_constraint": null, "bias_constraint": null}, "inbound_nodes": [[["global_max_pooling1d_33", 0, 0, {}]]]}, {"name": "dense_2", "class_name": "Dense", "config": {"name": "dense_2", "trainable": false, "dtype": "float32", "units": 64, "activation": "relu", "use_bias": true, "kernel_initializer": {"class_name": "GlorotUniform", "config": {"seed": null, "dtype": "float32"}}, "bias_initializer": {"class_name": "Zeros", "config": {"dtype": "float32"}}, "kernel_regularizer": null, "bias_regularizer": null, "activity_regularizer": null, "kernel_constraint": null, "bias_constraint": null}, "inbound_nodes": [[["dense_1", 0, 0, {}]]]}, {"name": "output_layer", "class_name": "Dense", "config": {"name": "output_layer", "trainable": false, "dtype": "float32", "units": 1, "activation": "sigmoid", "use_bias": true, "kernel_initializer": {"class_name": "GlorotUniform", "config": {"seed": null, "dtype": "float32"}}, "bias_initializer": {"class_name": "Zeros", "config": {"dtype": "float32"}}, "kernel_regularizer": null, "bias_regularizer": null, "activity_regularizer": null, "kernel_constraint": null, "bias_constraint": null}, "inbound_nodes": [[["dense_2", 0, 0, {}]]]}], "input_layers": [["input_61", 0, 0]], "output_layers": [["output_layer", 0, 0]]}, "inbound_nodes": [[["input_9", 0, 0, {}]]]}, {"name": "concatenate", "class_name": "Concatenate", "config": {"name": "concatenate", "trainable": true, "dtype": "float32", "axis": -1}, "inbound_nodes": [[["Baseline_PTB", 1, 0, {}], ["RNN_PTB_Bidirectional", 1, 0, {}], ["Conv_RNN_PTB_Bidirectional", 1, 0, {}], ["model_26", 1, 0, {}], ["Baseline_Transfer_Retrain", 1, 0, {}], ["RNN_Transfer_Retrain_Bidirectional", 1, 0, {}], ["Conv_RNN_Transfer_Retrain_Bidirectional", 1, 0, {}], ["model_45", 1, 0, {}]]]}, {"name": "dense", "class_name": "Dense", "config": {"name": "dense", "trainable": true, "dtype": "float32", "units": 64, "activation": "relu", "use_bias": true, "kernel_initializer": {"class_name": "GlorotUniform", "config": {"seed": null, "dtype": "float32"}}, "bias_initializer": {"class_name": "Zeros", "config": {"dtype": "float32"}}, "kernel_regularizer": null, "bias_regularizer": null, "activity_regularizer": null, "kernel_constraint": null, "bias_constraint": null}, "inbound_nodes": [[["concatenate", 0, 0, {}]]]}, {"name": "y", "class_name": "Dense", "config": {"name": "y", "trainable": true, "dtype": "float32", "units": 1, "activation": "sigmoid", "use_bias": true, "kernel_initializer": {"class_name": "GlorotUniform", "config": {"seed": null, "dtype": "float32"}}, "bias_initializer": {"class_name": "Zeros", "config": {"dtype": "float32"}}, "kernel_regularizer": null, "bias_regularizer": null, "activity_regularizer": null, "kernel_constraint": null, "bias_constraint": null}, "inbound_nodes": [[["dense", 0, 0, {}]]]}], "input_layers": [["input_9", 0, 0]], "output_layers": [["y", 0, 0]]}, "keras_version": "2.2.4-tf", "backend": "tensorflow"}