Accuracy: 0.9896942631398145
F1:       0.9871514879733337
AUROC:    0.986781086704169
AUPRC:    0.9905951064769364

Model: "Baseline_PTB"
_________________________________________________________________
Layer (type)                 Output Shape              Param #   
=================================================================
input_16 (InputLayer)        [(None, 187, 1)]          0         
_________________________________________________________________
conv1d_120 (Conv1D)          (None, 183, 16)           96        
_________________________________________________________________
conv1d_121 (Conv1D)          (None, 179, 16)           1296      
_________________________________________________________________
max_pooling1d_45 (MaxPooling (None, 89, 16)            0         
_________________________________________________________________
dropout_60 (Dropout)         (None, 89, 16)            0         
_________________________________________________________________
conv1d_122 (Conv1D)          (None, 87, 32)            1568      
_________________________________________________________________
conv1d_123 (Conv1D)          (None, 85, 32)            3104      
_________________________________________________________________
max_pooling1d_46 (MaxPooling (None, 42, 32)            0         
_________________________________________________________________
dropout_61 (Dropout)         (None, 42, 32)            0         
_________________________________________________________________
conv1d_124 (Conv1D)          (None, 40, 32)            3104      
_________________________________________________________________
conv1d_125 (Conv1D)          (None, 38, 32)            3104      
_________________________________________________________________
max_pooling1d_47 (MaxPooling (None, 19, 32)            0         
_________________________________________________________________
dropout_62 (Dropout)         (None, 19, 32)            0         
_________________________________________________________________
conv1d_126 (Conv1D)          (None, 17, 256)           24832     
_________________________________________________________________
conv1d_127 (Conv1D)          (None, 15, 256)           196864    
_________________________________________________________________
global_max_pooling1d_15 (Glo (None, 256)               0         
_________________________________________________________________
dropout_63 (Dropout)         (None, 256)               0         
_________________________________________________________________
dense_1 (Dense)              (None, 64)                16448     
_________________________________________________________________
dense_2 (Dense)              (None, 64)                4160      
_________________________________________________________________
dense_3_mitbih (Dense)       (None, 1)                 65        
=================================================================
Total params: 254,641
Trainable params: 254,641
Non-trainable params: 0
_________________________________________________________________

Accuracy:      0.9927859841978701
F1:            0.991002611746161
Confusion mat:
 [[ 797   12]
 [   9 2093]]
Acc per class: [0.98516687 0.99571836]
AUROC:    0.990442618072846
AUPRC:    0.9931337803116563
…
